{"backend": "tensorflow", "config": {"input_layers": [["input_1", 0, 0]], "layers": [{"name": "input_1", "config": {"sparse": false, "name": "input_1", "dtype": "float32", "batch_input_shape": [null, 224, 224, 3]}, "inbound_nodes": [], "class_name": "InputLayer"}, {"name": "block1_conv1", "config": {"trainable": true, "data_format": "channels_last", "kernel_constraint": null, "kernel_regularizer": null, "use_bias": false, "kernel_size": [3, 3], "activation": "linear", "padding": "valid", "name": "block1_conv1", "activity_regularizer": null, "kernel_initializer": {"config": {"scale": 1.0, "seed": null, "distribution": "uniform", "mode": "fan_avg"}, "class_name": "VarianceScaling"}, "bias_regularizer": null, "bias_initializer": {"config": {}, "class_name": "Zeros"}, "dilation_rate": [1, 1], "strides": [2, 2], "bias_constraint": null, "filters": 32}, "inbound_nodes": [[["input_1", 0, 0, {}]]], "class_name": "Conv2D"}, {"name": "block1_conv1_bn", "config": {"trainable": true, "scale": true, "axis": -1, "beta_regularizer": null, "epsilon": 0.001, "gamma_initializer": {"config": {}, "class_name": "Ones"}, "center": true, "momentum": 0.99, "beta_constraint": null, "name": "block1_conv1_bn", "moving_variance_initializer": {"config": {}, "class_name": "Ones"}, "gamma_regularizer": null, "gamma_constraint": null, "moving_mean_initializer": {"config": {}, "class_name": "Zeros"}, "beta_initializer": {"config": {}, "class_name": "Zeros"}}, "inbound_nodes": [[["block1_conv1", 0, 0, {}]]], "class_name": "BatchNormalization"}, {"name": "block1_conv1_act", "config": {"trainable": true, "name": "block1_conv1_act", "activation": "relu"}, "inbound_nodes": [[["block1_conv1_bn", 0, 0, {}]]], "class_name": "Activation"}, {"name": "block1_conv2", "config": {"trainable": true, "data_format": "channels_last", "kernel_constraint": null, "kernel_regularizer": null, "use_bias": false, "kernel_size": [3, 3], "activation": "linear", "padding": "valid", "name": "block1_conv2", "activity_regularizer": null, "kernel_initializer": {"config": {"scale": 1.0, "seed": null, "distribution": "uniform", "mode": "fan_avg"}, "class_name": "VarianceScaling"}, "bias_regularizer": null, "bias_initializer": {"config": {}, "class_name": "Zeros"}, "dilation_rate": [1, 1], "strides": [1, 1], "bias_constraint": null, "filters": 64}, "inbound_nodes": [[["block1_conv1_act", 0, 0, {}]]], "class_name": "Conv2D"}, {"name": "block1_conv2_bn", "config": {"trainable": true, "scale": true, "axis": -1, "beta_regularizer": null, "epsilon": 0.001, "gamma_initializer": {"config": {}, "class_name": "Ones"}, "center": true, "momentum": 0.99, "beta_constraint": null, "name": "block1_conv2_bn", "moving_variance_initializer": {"config": {}, "class_name": "Ones"}, "gamma_regularizer": null, "gamma_constraint": null, "moving_mean_initializer": {"config": {}, "class_name": "Zeros"}, "beta_initializer": {"config": {}, "class_name": "Zeros"}}, "inbound_nodes": [[["block1_conv2", 0, 0, {}]]], "class_name": "BatchNormalization"}, {"name": "block1_conv2_act", "config": {"trainable": true, "name": "block1_conv2_act", "activation": "relu"}, "inbound_nodes": [[["block1_conv2_bn", 0, 0, {}]]], "class_name": "Activation"}, {"name": "block2_sepconv1", "config": {"name": "block2_sepconv1", "trainable": true, "data_format": "channels_last", "pointwise_regularizer": null, "depthwise_regularizer": null, "padding": "same", "use_bias": false, "kernel_size": [3, 3], "dilation_rate": [1, 1], "activation": "linear", "pointwise_constraint": null, "bias_regularizer": null, "depthwise_initializer": {"config": {"scale": 1.0, "seed": null, "distribution": "uniform", "mode": "fan_avg"}, "class_name": "VarianceScaling"}, "activity_regularizer": null, "pointwise_initializer": {"config": {"scale": 1.0, "seed": null, "distribution": "uniform", "mode": "fan_avg"}, "class_name": "VarianceScaling"}, "depth_multiplier": 1, "bias_initializer": {"config": {}, "class_name": "Zeros"}, "depthwise_constraint": null, "strides": [1, 1], "bias_constraint": null, "filters": 128}, "inbound_nodes": [[["block1_conv2_act", 0, 0, {}]]], "class_name": "SeparableConv2D"}, {"name": "block2_sepconv1_bn", "config": {"trainable": true, "scale": true, "axis": -1, "beta_regularizer": null, "epsilon": 0.001, "gamma_initializer": {"config": {}, "class_name": "Ones"}, "center": true, "momentum": 0.99, "beta_constraint": null, "name": "block2_sepconv1_bn", "moving_variance_initializer": {"config": {}, "class_name": "Ones"}, "gamma_regularizer": null, "gamma_constraint": null, "moving_mean_initializer": {"config": {}, "class_name": "Zeros"}, "beta_initializer": {"config": {}, "class_name": "Zeros"}}, "inbound_nodes": [[["block2_sepconv1", 0, 0, {}]]], "class_name": "BatchNormalization"}, {"name": "block2_sepconv2_act", "config": {"trainable": true, "name": "block2_sepconv2_act", "activation": "relu"}, "inbound_nodes": [[["block2_sepconv1_bn", 0, 0, {}]]], "class_name": "Activation"}, {"name": "block2_sepconv2", "config": {"name": "block2_sepconv2", "trainable": true, "data_format": "channels_last", "pointwise_regularizer": null, "depthwise_regularizer": null, "padding": "same", "use_bias": false, "kernel_size": [3, 3], "dilation_rate": [1, 1], "activation": "linear", "pointwise_constraint": null, "bias_regularizer": null, "depthwise_initializer": {"config": {"scale": 1.0, "seed": null, "distribution": "uniform", "mode": "fan_avg"}, "class_name": "VarianceScaling"}, "activity_regularizer": null, "pointwise_initializer": {"config": {"scale": 1.0, "seed": null, "distribution": "uniform", "mode": "fan_avg"}, "class_name": "VarianceScaling"}, "depth_multiplier": 1, "bias_initializer": {"config": {}, "class_name": "Zeros"}, "depthwise_constraint": null, "strides": [1, 1], "bias_constraint": null, "filters": 128}, "inbound_nodes": [[["block2_sepconv2_act", 0, 0, {}]]], "class_name": "SeparableConv2D"}, {"name": "block2_sepconv2_bn", "config": {"trainable": true, "scale": true, "axis": -1, "beta_regularizer": null, "epsilon": 0.001, "gamma_initializer": {"config": {}, "class_name": "Ones"}, "center": true, "momentum": 0.99, "beta_constraint": null, "name": "block2_sepconv2_bn", "moving_variance_initializer": {"config": {}, "class_name": "Ones"}, "gamma_regularizer": null, "gamma_constraint": null, "moving_mean_initializer": {"config": {}, "class_name": "Zeros"}, "beta_initializer": {"config": {}, "class_name": "Zeros"}}, "inbound_nodes": [[["block2_sepconv2", 0, 0, {}]]], "class_name": "BatchNormalization"}, {"name": "conv2d_1", "config": {"trainable": true, "data_format": "channels_last", "kernel_constraint": null, "kernel_regularizer": null, "use_bias": false, "kernel_size": [1, 1], "activation": "linear", "padding": "same", "name": "conv2d_1", "activity_regularizer": null, "kernel_initializer": {"config": {"scale": 1.0, "seed": null, "distribution": "uniform", "mode": "fan_avg"}, "class_name": "VarianceScaling"}, "bias_regularizer": null, "bias_initializer": {"config": {}, "class_name": "Zeros"}, "dilation_rate": [1, 1], "strides": [2, 2], "bias_constraint": null, "filters": 128}, "inbound_nodes": [[["block1_conv2_act", 0, 0, {}]]], "class_name": "Conv2D"}, {"name": "block2_pool", "config": {"pool_size": [3, 3], "trainable": true, "name": "block2_pool", "data_format": "channels_last", "padding": "same", "strides": [2, 2]}, "inbound_nodes": [[["block2_sepconv2_bn", 0, 0, {}]]], "class_name": "MaxPooling2D"}, {"name": "batch_normalization_1", "config": {"trainable": true, "scale": true, "axis": -1, "beta_regularizer": null, "epsilon": 0.001, "gamma_initializer": {"config": {}, "class_name": "Ones"}, "center": true, "momentum": 0.99, "beta_constraint": null, "name": "batch_normalization_1", "moving_variance_initializer": {"config": {}, "class_name": "Ones"}, "gamma_regularizer": null, "gamma_constraint": null, "moving_mean_initializer": {"config": {}, "class_name": "Zeros"}, "beta_initializer": {"config": {}, "class_name": "Zeros"}}, "inbound_nodes": [[["conv2d_1", 0, 0, {}]]], "class_name": "BatchNormalization"}, {"name": "add_1", "config": {"trainable": true, "name": "add_1"}, "inbound_nodes": [[["block2_pool", 0, 0, {}], ["batch_normalization_1", 0, 0, {}]]], "class_name": "Add"}, {"name": "block3_sepconv1_act", "config": {"trainable": true, "name": "block3_sepconv1_act", "activation": "relu"}, "inbound_nodes": [[["add_1", 0, 0, {}]]], "class_name": "Activation"}, {"name": "block3_sepconv1", "config": {"name": "block3_sepconv1", "trainable": true, "data_format": "channels_last", "pointwise_regularizer": null, "depthwise_regularizer": null, "padding": "same", "use_bias": false, "kernel_size": [3, 3], "dilation_rate": [1, 1], "activation": "linear", "pointwise_constraint": null, "bias_regularizer": null, "depthwise_initializer": {"config": {"scale": 1.0, "seed": null, "distribution": "uniform", "mode": "fan_avg"}, "class_name": "VarianceScaling"}, "activity_regularizer": null, "pointwise_initializer": {"config": {"scale": 1.0, "seed": null, "distribution": "uniform", "mode": "fan_avg"}, "class_name": "VarianceScaling"}, "depth_multiplier": 1, "bias_initializer": {"config": {}, "class_name": "Zeros"}, "depthwise_constraint": null, "strides": [1, 1], "bias_constraint": null, "filters": 256}, "inbound_nodes": [[["block3_sepconv1_act", 0, 0, {}]]], "class_name": "SeparableConv2D"}, {"name": "block3_sepconv1_bn", "config": {"trainable": true, "scale": true, "axis": -1, "beta_regularizer": null, "epsilon": 0.001, "gamma_initializer": {"config": {}, "class_name": "Ones"}, "center": true, "momentum": 0.99, "beta_constraint": null, "name": "block3_sepconv1_bn", "moving_variance_initializer": {"config": {}, "class_name": "Ones"}, "gamma_regularizer": null, "gamma_constraint": null, "moving_mean_initializer": {"config": {}, "class_name": "Zeros"}, "beta_initializer": {"config": {}, "class_name": "Zeros"}}, "inbound_nodes": [[["block3_sepconv1", 0, 0, {}]]], "class_name": "BatchNormalization"}, {"name": "block3_sepconv2_act", "config": {"trainable": true, "name": "block3_sepconv2_act", "activation": "relu"}, "inbound_nodes": [[["block3_sepconv1_bn", 0, 0, {}]]], "class_name": "Activation"}, {"name": "block3_sepconv2", "config": {"name": "block3_sepconv2", "trainable": true, "data_format": "channels_last", "pointwise_regularizer": null, "depthwise_regularizer": null, "padding": "same", "use_bias": false, "kernel_size": [3, 3], "dilation_rate": [1, 1], "activation": "linear", "pointwise_constraint": null, "bias_regularizer": null, "depthwise_initializer": {"config": {"scale": 1.0, "seed": null, "distribution": "uniform", "mode": "fan_avg"}, "class_name": "VarianceScaling"}, "activity_regularizer": null, "pointwise_initializer": {"config": {"scale": 1.0, "seed": null, "distribution": "uniform", "mode": "fan_avg"}, "class_name": "VarianceScaling"}, "depth_multiplier": 1, "bias_initializer": {"config": {}, "class_name": "Zeros"}, "depthwise_constraint": null, "strides": [1, 1], "bias_constraint": null, "filters": 256}, "inbound_nodes": [[["block3_sepconv2_act", 0, 0, {}]]], "class_name": "SeparableConv2D"}, {"name": "block3_sepconv2_bn", "config": {"trainable": true, "scale": true, "axis": -1, "beta_regularizer": null, "epsilon": 0.001, "gamma_initializer": {"config": {}, "class_name": "Ones"}, "center": true, "momentum": 0.99, "beta_constraint": null, "name": "block3_sepconv2_bn", "moving_variance_initializer": {"config": {}, "class_name": "Ones"}, "gamma_regularizer": null, "gamma_constraint": null, "moving_mean_initializer": {"config": {}, "class_name": "Zeros"}, "beta_initializer": {"config": {}, "class_name": "Zeros"}}, "inbound_nodes": [[["block3_sepconv2", 0, 0, {}]]], "class_name": "BatchNormalization"}, {"name": "conv2d_2", "config": {"trainable": true, "data_format": "channels_last", "kernel_constraint": null, "kernel_regularizer": null, "use_bias": false, "kernel_size": [1, 1], "activation": "linear", "padding": "same", "name": "conv2d_2", "activity_regularizer": null, "kernel_initializer": {"config": {"scale": 1.0, "seed": null, "distribution": "uniform", "mode": "fan_avg"}, "class_name": "VarianceScaling"}, "bias_regularizer": null, "bias_initializer": {"config": {}, "class_name": "Zeros"}, "dilation_rate": [1, 1], "strides": [2, 2], "bias_constraint": null, "filters": 256}, "inbound_nodes": [[["add_1", 0, 0, {}]]], "class_name": "Conv2D"}, {"name": "block3_pool", "config": {"pool_size": [3, 3], "trainable": true, "name": "block3_pool", "data_format": "channels_last", "padding": "same", "strides": [2, 2]}, "inbound_nodes": [[["block3_sepconv2_bn", 0, 0, {}]]], "class_name": "MaxPooling2D"}, {"name": "batch_normalization_2", "config": {"trainable": true, "scale": true, "axis": -1, "beta_regularizer": null, "epsilon": 0.001, "gamma_initializer": {"config": {}, "class_name": "Ones"}, "center": true, "momentum": 0.99, "beta_constraint": null, "name": "batch_normalization_2", "moving_variance_initializer": {"config": {}, "class_name": "Ones"}, "gamma_regularizer": null, "gamma_constraint": null, "moving_mean_initializer": {"config": {}, "class_name": "Zeros"}, "beta_initializer": {"config": {}, "class_name": "Zeros"}}, "inbound_nodes": [[["conv2d_2", 0, 0, {}]]], "class_name": "BatchNormalization"}, {"name": "add_2", "config": {"trainable": true, "name": "add_2"}, "inbound_nodes": [[["block3_pool", 0, 0, {}], ["batch_normalization_2", 0, 0, {}]]], "class_name": "Add"}, {"name": "block4_sepconv1_act", "config": {"trainable": true, "name": "block4_sepconv1_act", "activation": "relu"}, "inbound_nodes": [[["add_2", 0, 0, {}]]], "class_name": "Activation"}, {"name": "block4_sepconv1", "config": {"name": "block4_sepconv1", "trainable": true, "data_format": "channels_last", "pointwise_regularizer": null, "depthwise_regularizer": null, "padding": "same", "use_bias": false, "kernel_size": [3, 3], "dilation_rate": [1, 1], "activation": "linear", "pointwise_constraint": null, "bias_regularizer": null, "depthwise_initializer": {"config": {"scale": 1.0, "seed": null, "distribution": "uniform", "mode": "fan_avg"}, "class_name": "VarianceScaling"}, "activity_regularizer": null, "pointwise_initializer": {"config": {"scale": 1.0, "seed": null, "distribution": "uniform", "mode": "fan_avg"}, "class_name": "VarianceScaling"}, "depth_multiplier": 1, "bias_initializer": {"config": {}, "class_name": "Zeros"}, "depthwise_constraint": null, "strides": [1, 1], "bias_constraint": null, "filters": 728}, "inbound_nodes": [[["block4_sepconv1_act", 0, 0, {}]]], "class_name": "SeparableConv2D"}, {"name": "block4_sepconv1_bn", "config": {"trainable": true, "scale": true, "axis": -1, "beta_regularizer": null, "epsilon": 0.001, "gamma_initializer": {"config": {}, "class_name": "Ones"}, "center": true, "momentum": 0.99, "beta_constraint": null, "name": "block4_sepconv1_bn", "moving_variance_initializer": {"config": {}, "class_name": "Ones"}, "gamma_regularizer": null, "gamma_constraint": null, "moving_mean_initializer": {"config": {}, "class_name": "Zeros"}, "beta_initializer": {"config": {}, "class_name": "Zeros"}}, "inbound_nodes": [[["block4_sepconv1", 0, 0, {}]]], "class_name": "BatchNormalization"}, {"name": "block4_sepconv2_act", "config": {"trainable": true, "name": "block4_sepconv2_act", "activation": "relu"}, "inbound_nodes": [[["block4_sepconv1_bn", 0, 0, {}]]], "class_name": "Activation"}, {"name": "block4_sepconv2", "config": {"name": "block4_sepconv2", "trainable": true, "data_format": "channels_last", "pointwise_regularizer": null, "depthwise_regularizer": null, "padding": "same", "use_bias": false, "kernel_size": [3, 3], "dilation_rate": [1, 1], "activation": "linear", "pointwise_constraint": null, "bias_regularizer": null, "depthwise_initializer": {"config": {"scale": 1.0, "seed": null, "distribution": "uniform", "mode": "fan_avg"}, "class_name": "VarianceScaling"}, "activity_regularizer": null, "pointwise_initializer": {"config": {"scale": 1.0, "seed": null, "distribution": "uniform", "mode": "fan_avg"}, "class_name": "VarianceScaling"}, "depth_multiplier": 1, "bias_initializer": {"config": {}, "class_name": "Zeros"}, "depthwise_constraint": null, "strides": [1, 1], "bias_constraint": null, "filters": 728}, "inbound_nodes": [[["block4_sepconv2_act", 0, 0, {}]]], "class_name": "SeparableConv2D"}, {"name": "block4_sepconv2_bn", "config": {"trainable": true, "scale": true, "axis": -1, "beta_regularizer": null, "epsilon": 0.001, "gamma_initializer": {"config": {}, "class_name": "Ones"}, "center": true, "momentum": 0.99, "beta_constraint": null, "name": "block4_sepconv2_bn", "moving_variance_initializer": {"config": {}, "class_name": "Ones"}, "gamma_regularizer": null, "gamma_constraint": null, "moving_mean_initializer": {"config": {}, "class_name": "Zeros"}, "beta_initializer": {"config": {}, "class_name": "Zeros"}}, "inbound_nodes": [[["block4_sepconv2", 0, 0, {}]]], "class_name": "BatchNormalization"}, {"name": "conv2d_3", "config": {"trainable": true, "data_format": "channels_last", "kernel_constraint": null, "kernel_regularizer": null, "use_bias": false, "kernel_size": [1, 1], "activation": "linear", "padding": "same", "name": "conv2d_3", "activity_regularizer": null, "kernel_initializer": {"config": {"scale": 1.0, "seed": null, "distribution": "uniform", "mode": "fan_avg"}, "class_name": "VarianceScaling"}, "bias_regularizer": null, "bias_initializer": {"config": {}, "class_name": "Zeros"}, "dilation_rate": [1, 1], "strides": [2, 2], "bias_constraint": null, "filters": 728}, "inbound_nodes": [[["add_2", 0, 0, {}]]], "class_name": "Conv2D"}, {"name": "block4_pool", "config": {"pool_size": [3, 3], "trainable": true, "name": "block4_pool", "data_format": "channels_last", "padding": "same", "strides": [2, 2]}, "inbound_nodes": [[["block4_sepconv2_bn", 0, 0, {}]]], "class_name": "MaxPooling2D"}, {"name": "batch_normalization_3", "config": {"trainable": true, "scale": true, "axis": -1, "beta_regularizer": null, "epsilon": 0.001, "gamma_initializer": {"config": {}, "class_name": "Ones"}, "center": true, "momentum": 0.99, "beta_constraint": null, "name": "batch_normalization_3", "moving_variance_initializer": {"config": {}, "class_name": "Ones"}, "gamma_regularizer": null, "gamma_constraint": null, "moving_mean_initializer": {"config": {}, "class_name": "Zeros"}, "beta_initializer": {"config": {}, "class_name": "Zeros"}}, "inbound_nodes": [[["conv2d_3", 0, 0, {}]]], "class_name": "BatchNormalization"}, {"name": "add_3", "config": {"trainable": true, "name": "add_3"}, "inbound_nodes": [[["block4_pool", 0, 0, {}], ["batch_normalization_3", 0, 0, {}]]], "class_name": "Add"}, {"name": "block5_sepconv1_act", "config": {"trainable": true, "name": "block5_sepconv1_act", "activation": "relu"}, "inbound_nodes": [[["add_3", 0, 0, {}]]], "class_name": "Activation"}, {"name": "block5_sepconv1", "config": {"name": "block5_sepconv1", "trainable": true, "data_format": "channels_last", "pointwise_regularizer": null, "depthwise_regularizer": null, "padding": "same", "use_bias": false, "kernel_size": [3, 3], "dilation_rate": [1, 1], "activation": "linear", "pointwise_constraint": null, "bias_regularizer": null, "depthwise_initializer": {"config": {"scale": 1.0, "seed": null, "distribution": "uniform", "mode": "fan_avg"}, "class_name": "VarianceScaling"}, "activity_regularizer": null, "pointwise_initializer": {"config": {"scale": 1.0, "seed": null, "distribution": "uniform", "mode": "fan_avg"}, "class_name": "VarianceScaling"}, "depth_multiplier": 1, "bias_initializer": {"config": {}, "class_name": "Zeros"}, "depthwise_constraint": null, "strides": [1, 1], "bias_constraint": null, "filters": 728}, "inbound_nodes": [[["block5_sepconv1_act", 0, 0, {}]]], "class_name": "SeparableConv2D"}, {"name": "block5_sepconv1_bn", "config": {"trainable": true, "scale": true, "axis": -1, "beta_regularizer": null, "epsilon": 0.001, "gamma_initializer": {"config": {}, "class_name": "Ones"}, "center": true, "momentum": 0.99, "beta_constraint": null, "name": "block5_sepconv1_bn", "moving_variance_initializer": {"config": {}, "class_name": "Ones"}, "gamma_regularizer": null, "gamma_constraint": null, "moving_mean_initializer": {"config": {}, "class_name": "Zeros"}, "beta_initializer": {"config": {}, "class_name": "Zeros"}}, "inbound_nodes": [[["block5_sepconv1", 0, 0, {}]]], "class_name": "BatchNormalization"}, {"name": "block5_sepconv2_act", "config": {"trainable": true, "name": "block5_sepconv2_act", "activation": "relu"}, "inbound_nodes": [[["block5_sepconv1_bn", 0, 0, {}]]], "class_name": "Activation"}, {"name": "block5_sepconv2", "config": {"name": "block5_sepconv2", "trainable": true, "data_format": "channels_last", "pointwise_regularizer": null, "depthwise_regularizer": null, "padding": "same", "use_bias": false, "kernel_size": [3, 3], "dilation_rate": [1, 1], "activation": "linear", "pointwise_constraint": null, "bias_regularizer": null, "depthwise_initializer": {"config": {"scale": 1.0, "seed": null, "distribution": "uniform", "mode": "fan_avg"}, "class_name": "VarianceScaling"}, "activity_regularizer": null, "pointwise_initializer": {"config": {"scale": 1.0, "seed": null, "distribution": "uniform", "mode": "fan_avg"}, "class_name": "VarianceScaling"}, "depth_multiplier": 1, "bias_initializer": {"config": {}, "class_name": "Zeros"}, "depthwise_constraint": null, "strides": [1, 1], "bias_constraint": null, "filters": 728}, "inbound_nodes": [[["block5_sepconv2_act", 0, 0, {}]]], "class_name": "SeparableConv2D"}, {"name": "block5_sepconv2_bn", "config": {"trainable": true, "scale": true, "axis": -1, "beta_regularizer": null, "epsilon": 0.001, "gamma_initializer": {"config": {}, "class_name": "Ones"}, "center": true, "momentum": 0.99, "beta_constraint": null, "name": "block5_sepconv2_bn", "moving_variance_initializer": {"config": {}, "class_name": "Ones"}, "gamma_regularizer": null, "gamma_constraint": null, "moving_mean_initializer": {"config": {}, "class_name": "Zeros"}, "beta_initializer": {"config": {}, "class_name": "Zeros"}}, "inbound_nodes": [[["block5_sepconv2", 0, 0, {}]]], "class_name": "BatchNormalization"}, {"name": "block5_sepconv3_act", "config": {"trainable": true, "name": "block5_sepconv3_act", "activation": "relu"}, "inbound_nodes": [[["block5_sepconv2_bn", 0, 0, {}]]], "class_name": "Activation"}, {"name": "block5_sepconv3", "config": {"name": "block5_sepconv3", "trainable": true, "data_format": "channels_last", "pointwise_regularizer": null, "depthwise_regularizer": null, "padding": "same", "use_bias": false, "kernel_size": [3, 3], "dilation_rate": [1, 1], "activation": "linear", "pointwise_constraint": null, "bias_regularizer": null, "depthwise_initializer": {"config": {"scale": 1.0, "seed": null, "distribution": "uniform", "mode": "fan_avg"}, "class_name": "VarianceScaling"}, "activity_regularizer": null, "pointwise_initializer": {"config": {"scale": 1.0, "seed": null, "distribution": "uniform", "mode": "fan_avg"}, "class_name": "VarianceScaling"}, "depth_multiplier": 1, "bias_initializer": {"config": {}, "class_name": "Zeros"}, "depthwise_constraint": null, "strides": [1, 1], "bias_constraint": null, "filters": 728}, "inbound_nodes": [[["block5_sepconv3_act", 0, 0, {}]]], "class_name": "SeparableConv2D"}, {"name": "block5_sepconv3_bn", "config": {"trainable": true, "scale": true, "axis": -1, "beta_regularizer": null, "epsilon": 0.001, "gamma_initializer": {"config": {}, "class_name": "Ones"}, "center": true, "momentum": 0.99, "beta_constraint": null, "name": "block5_sepconv3_bn", "moving_variance_initializer": {"config": {}, "class_name": "Ones"}, "gamma_regularizer": null, "gamma_constraint": null, "moving_mean_initializer": {"config": {}, "class_name": "Zeros"}, "beta_initializer": {"config": {}, "class_name": "Zeros"}}, "inbound_nodes": [[["block5_sepconv3", 0, 0, {}]]], "class_name": "BatchNormalization"}, {"name": "add_4", "config": {"trainable": true, "name": "add_4"}, "inbound_nodes": [[["block5_sepconv3_bn", 0, 0, {}], ["add_3", 0, 0, {}]]], "class_name": "Add"}, {"name": "block6_sepconv1_act", "config": {"trainable": true, "name": "block6_sepconv1_act", "activation": "relu"}, "inbound_nodes": [[["add_4", 0, 0, {}]]], "class_name": "Activation"}, {"name": "block6_sepconv1", "config": {"name": "block6_sepconv1", "trainable": true, "data_format": "channels_last", "pointwise_regularizer": null, "depthwise_regularizer": null, "padding": "same", "use_bias": false, "kernel_size": [3, 3], "dilation_rate": [1, 1], "activation": "linear", "pointwise_constraint": null, "bias_regularizer": null, "depthwise_initializer": {"config": {"scale": 1.0, "seed": null, "distribution": "uniform", "mode": "fan_avg"}, "class_name": "VarianceScaling"}, "activity_regularizer": null, "pointwise_initializer": {"config": {"scale": 1.0, "seed": null, "distribution": "uniform", "mode": "fan_avg"}, "class_name": "VarianceScaling"}, "depth_multiplier": 1, "bias_initializer": {"config": {}, "class_name": "Zeros"}, "depthwise_constraint": null, "strides": [1, 1], "bias_constraint": null, "filters": 728}, "inbound_nodes": [[["block6_sepconv1_act", 0, 0, {}]]], "class_name": "SeparableConv2D"}, {"name": "block6_sepconv1_bn", "config": {"trainable": true, "scale": true, "axis": -1, "beta_regularizer": null, "epsilon": 0.001, "gamma_initializer": {"config": {}, "class_name": "Ones"}, "center": true, "momentum": 0.99, "beta_constraint": null, "name": "block6_sepconv1_bn", "moving_variance_initializer": {"config": {}, "class_name": "Ones"}, "gamma_regularizer": null, "gamma_constraint": null, "moving_mean_initializer": {"config": {}, "class_name": "Zeros"}, "beta_initializer": {"config": {}, "class_name": "Zeros"}}, "inbound_nodes": [[["block6_sepconv1", 0, 0, {}]]], "class_name": "BatchNormalization"}, {"name": "block6_sepconv2_act", "config": {"trainable": true, "name": "block6_sepconv2_act", "activation": "relu"}, "inbound_nodes": [[["block6_sepconv1_bn", 0, 0, {}]]], "class_name": "Activation"}, {"name": "block6_sepconv2", "config": {"name": "block6_sepconv2", "trainable": true, "data_format": "channels_last", "pointwise_regularizer": null, "depthwise_regularizer": null, "padding": "same", "use_bias": false, "kernel_size": [3, 3], "dilation_rate": [1, 1], "activation": "linear", "pointwise_constraint": null, "bias_regularizer": null, "depthwise_initializer": {"config": {"scale": 1.0, "seed": null, "distribution": "uniform", "mode": "fan_avg"}, "class_name": "VarianceScaling"}, "activity_regularizer": null, "pointwise_initializer": {"config": {"scale": 1.0, "seed": null, "distribution": "uniform", "mode": "fan_avg"}, "class_name": "VarianceScaling"}, "depth_multiplier": 1, "bias_initializer": {"config": {}, "class_name": "Zeros"}, "depthwise_constraint": null, "strides": [1, 1], "bias_constraint": null, "filters": 728}, "inbound_nodes": [[["block6_sepconv2_act", 0, 0, {}]]], "class_name": "SeparableConv2D"}, {"name": "block6_sepconv2_bn", "config": {"trainable": true, "scale": true, "axis": -1, "beta_regularizer": null, "epsilon": 0.001, "gamma_initializer": {"config": {}, "class_name": "Ones"}, "center": true, "momentum": 0.99, "beta_constraint": null, "name": "block6_sepconv2_bn", "moving_variance_initializer": {"config": {}, "class_name": "Ones"}, "gamma_regularizer": null, "gamma_constraint": null, "moving_mean_initializer": {"config": {}, "class_name": "Zeros"}, "beta_initializer": {"config": {}, "class_name": "Zeros"}}, "inbound_nodes": [[["block6_sepconv2", 0, 0, {}]]], "class_name": "BatchNormalization"}, {"name": "block6_sepconv3_act", "config": {"trainable": true, "name": "block6_sepconv3_act", "activation": "relu"}, "inbound_nodes": [[["block6_sepconv2_bn", 0, 0, {}]]], "class_name": "Activation"}, {"name": "block6_sepconv3", "config": {"name": "block6_sepconv3", "trainable": true, "data_format": "channels_last", "pointwise_regularizer": null, "depthwise_regularizer": null, "padding": "same", "use_bias": false, "kernel_size": [3, 3], "dilation_rate": [1, 1], "activation": "linear", "pointwise_constraint": null, "bias_regularizer": null, "depthwise_initializer": {"config": {"scale": 1.0, "seed": null, "distribution": "uniform", "mode": "fan_avg"}, "class_name": "VarianceScaling"}, "activity_regularizer": null, "pointwise_initializer": {"config": {"scale": 1.0, "seed": null, "distribution": "uniform", "mode": "fan_avg"}, "class_name": "VarianceScaling"}, "depth_multiplier": 1, "bias_initializer": {"config": {}, "class_name": "Zeros"}, "depthwise_constraint": null, "strides": [1, 1], "bias_constraint": null, "filters": 728}, "inbound_nodes": [[["block6_sepconv3_act", 0, 0, {}]]], "class_name": "SeparableConv2D"}, {"name": "block6_sepconv3_bn", "config": {"trainable": true, "scale": true, "axis": -1, "beta_regularizer": null, "epsilon": 0.001, "gamma_initializer": {"config": {}, "class_name": "Ones"}, "center": true, "momentum": 0.99, "beta_constraint": null, "name": "block6_sepconv3_bn", "moving_variance_initializer": {"config": {}, "class_name": "Ones"}, "gamma_regularizer": null, "gamma_constraint": null, "moving_mean_initializer": {"config": {}, "class_name": "Zeros"}, "beta_initializer": {"config": {}, "class_name": "Zeros"}}, "inbound_nodes": [[["block6_sepconv3", 0, 0, {}]]], "class_name": "BatchNormalization"}, {"name": "add_5", "config": {"trainable": true, "name": "add_5"}, "inbound_nodes": [[["block6_sepconv3_bn", 0, 0, {}], ["add_4", 0, 0, {}]]], "class_name": "Add"}, {"name": "block7_sepconv1_act", "config": {"trainable": true, "name": "block7_sepconv1_act", "activation": "relu"}, "inbound_nodes": [[["add_5", 0, 0, {}]]], "class_name": "Activation"}, {"name": "block7_sepconv1", "config": {"name": "block7_sepconv1", "trainable": true, "data_format": "channels_last", "pointwise_regularizer": null, "depthwise_regularizer": null, "padding": "same", "use_bias": false, "kernel_size": [3, 3], "dilation_rate": [1, 1], "activation": "linear", "pointwise_constraint": null, "bias_regularizer": null, "depthwise_initializer": {"config": {"scale": 1.0, "seed": null, "distribution": "uniform", "mode": "fan_avg"}, "class_name": "VarianceScaling"}, "activity_regularizer": null, "pointwise_initializer": {"config": {"scale": 1.0, "seed": null, "distribution": "uniform", "mode": "fan_avg"}, "class_name": "VarianceScaling"}, "depth_multiplier": 1, "bias_initializer": {"config": {}, "class_name": "Zeros"}, "depthwise_constraint": null, "strides": [1, 1], "bias_constraint": null, "filters": 728}, "inbound_nodes": [[["block7_sepconv1_act", 0, 0, {}]]], "class_name": "SeparableConv2D"}, {"name": "block7_sepconv1_bn", "config": {"trainable": true, "scale": true, "axis": -1, "beta_regularizer": null, "epsilon": 0.001, "gamma_initializer": {"config": {}, "class_name": "Ones"}, "center": true, "momentum": 0.99, "beta_constraint": null, "name": "block7_sepconv1_bn", "moving_variance_initializer": {"config": {}, "class_name": "Ones"}, "gamma_regularizer": null, "gamma_constraint": null, "moving_mean_initializer": {"config": {}, "class_name": "Zeros"}, "beta_initializer": {"config": {}, "class_name": "Zeros"}}, "inbound_nodes": [[["block7_sepconv1", 0, 0, {}]]], "class_name": "BatchNormalization"}, {"name": "block7_sepconv2_act", "config": {"trainable": true, "name": "block7_sepconv2_act", "activation": "relu"}, "inbound_nodes": [[["block7_sepconv1_bn", 0, 0, {}]]], "class_name": "Activation"}, {"name": "block7_sepconv2", "config": {"name": "block7_sepconv2", "trainable": true, "data_format": "channels_last", "pointwise_regularizer": null, "depthwise_regularizer": null, "padding": "same", "use_bias": false, "kernel_size": [3, 3], "dilation_rate": [1, 1], "activation": "linear", "pointwise_constraint": null, "bias_regularizer": null, "depthwise_initializer": {"config": {"scale": 1.0, "seed": null, "distribution": "uniform", "mode": "fan_avg"}, "class_name": "VarianceScaling"}, "activity_regularizer": null, "pointwise_initializer": {"config": {"scale": 1.0, "seed": null, "distribution": "uniform", "mode": "fan_avg"}, "class_name": "VarianceScaling"}, "depth_multiplier": 1, "bias_initializer": {"config": {}, "class_name": "Zeros"}, "depthwise_constraint": null, "strides": [1, 1], "bias_constraint": null, "filters": 728}, "inbound_nodes": [[["block7_sepconv2_act", 0, 0, {}]]], "class_name": "SeparableConv2D"}, {"name": "block7_sepconv2_bn", "config": {"trainable": true, "scale": true, "axis": -1, "beta_regularizer": null, "epsilon": 0.001, "gamma_initializer": {"config": {}, "class_name": "Ones"}, "center": true, "momentum": 0.99, "beta_constraint": null, "name": "block7_sepconv2_bn", "moving_variance_initializer": {"config": {}, "class_name": "Ones"}, "gamma_regularizer": null, "gamma_constraint": null, "moving_mean_initializer": {"config": {}, "class_name": "Zeros"}, "beta_initializer": {"config": {}, "class_name": "Zeros"}}, "inbound_nodes": [[["block7_sepconv2", 0, 0, {}]]], "class_name": "BatchNormalization"}, {"name": "block7_sepconv3_act", "config": {"trainable": true, "name": "block7_sepconv3_act", "activation": "relu"}, "inbound_nodes": [[["block7_sepconv2_bn", 0, 0, {}]]], "class_name": "Activation"}, {"name": "block7_sepconv3", "config": {"name": "block7_sepconv3", "trainable": true, "data_format": "channels_last", "pointwise_regularizer": null, "depthwise_regularizer": null, "padding": "same", "use_bias": false, "kernel_size": [3, 3], "dilation_rate": [1, 1], "activation": "linear", "pointwise_constraint": null, "bias_regularizer": null, "depthwise_initializer": {"config": {"scale": 1.0, "seed": null, "distribution": "uniform", "mode": "fan_avg"}, "class_name": "VarianceScaling"}, "activity_regularizer": null, "pointwise_initializer": {"config": {"scale": 1.0, "seed": null, "distribution": "uniform", "mode": "fan_avg"}, "class_name": "VarianceScaling"}, "depth_multiplier": 1, "bias_initializer": {"config": {}, "class_name": "Zeros"}, "depthwise_constraint": null, "strides": [1, 1], "bias_constraint": null, "filters": 728}, "inbound_nodes": [[["block7_sepconv3_act", 0, 0, {}]]], "class_name": "SeparableConv2D"}, {"name": "block7_sepconv3_bn", "config": {"trainable": true, "scale": true, "axis": -1, "beta_regularizer": null, "epsilon": 0.001, "gamma_initializer": {"config": {}, "class_name": "Ones"}, "center": true, "momentum": 0.99, "beta_constraint": null, "name": "block7_sepconv3_bn", "moving_variance_initializer": {"config": {}, "class_name": "Ones"}, "gamma_regularizer": null, "gamma_constraint": null, "moving_mean_initializer": {"config": {}, "class_name": "Zeros"}, "beta_initializer": {"config": {}, "class_name": "Zeros"}}, "inbound_nodes": [[["block7_sepconv3", 0, 0, {}]]], "class_name": "BatchNormalization"}, {"name": "add_6", "config": {"trainable": true, "name": "add_6"}, "inbound_nodes": [[["block7_sepconv3_bn", 0, 0, {}], ["add_5", 0, 0, {}]]], "class_name": "Add"}, {"name": "block8_sepconv1_act", "config": {"trainable": true, "name": "block8_sepconv1_act", "activation": "relu"}, "inbound_nodes": [[["add_6", 0, 0, {}]]], "class_name": "Activation"}, {"name": "block8_sepconv1", "config": {"name": "block8_sepconv1", "trainable": true, "data_format": "channels_last", "pointwise_regularizer": null, "depthwise_regularizer": null, "padding": "same", "use_bias": false, "kernel_size": [3, 3], "dilation_rate": [1, 1], "activation": "linear", "pointwise_constraint": null, "bias_regularizer": null, "depthwise_initializer": {"config": {"scale": 1.0, "seed": null, "distribution": "uniform", "mode": "fan_avg"}, "class_name": "VarianceScaling"}, "activity_regularizer": null, "pointwise_initializer": {"config": {"scale": 1.0, "seed": null, "distribution": "uniform", "mode": "fan_avg"}, "class_name": "VarianceScaling"}, "depth_multiplier": 1, "bias_initializer": {"config": {}, "class_name": "Zeros"}, "depthwise_constraint": null, "strides": [1, 1], "bias_constraint": null, "filters": 728}, "inbound_nodes": [[["block8_sepconv1_act", 0, 0, {}]]], "class_name": "SeparableConv2D"}, {"name": "block8_sepconv1_bn", "config": {"trainable": true, "scale": true, "axis": -1, "beta_regularizer": null, "epsilon": 0.001, "gamma_initializer": {"config": {}, "class_name": "Ones"}, "center": true, "momentum": 0.99, "beta_constraint": null, "name": "block8_sepconv1_bn", "moving_variance_initializer": {"config": {}, "class_name": "Ones"}, "gamma_regularizer": null, "gamma_constraint": null, "moving_mean_initializer": {"config": {}, "class_name": "Zeros"}, "beta_initializer": {"config": {}, "class_name": "Zeros"}}, "inbound_nodes": [[["block8_sepconv1", 0, 0, {}]]], "class_name": "BatchNormalization"}, {"name": "block8_sepconv2_act", "config": {"trainable": true, "name": "block8_sepconv2_act", "activation": "relu"}, "inbound_nodes": [[["block8_sepconv1_bn", 0, 0, {}]]], "class_name": "Activation"}, {"name": "block8_sepconv2", "config": {"name": "block8_sepconv2", "trainable": true, "data_format": "channels_last", "pointwise_regularizer": null, "depthwise_regularizer": null, "padding": "same", "use_bias": false, "kernel_size": [3, 3], "dilation_rate": [1, 1], "activation": "linear", "pointwise_constraint": null, "bias_regularizer": null, "depthwise_initializer": {"config": {"scale": 1.0, "seed": null, "distribution": "uniform", "mode": "fan_avg"}, "class_name": "VarianceScaling"}, "activity_regularizer": null, "pointwise_initializer": {"config": {"scale": 1.0, "seed": null, "distribution": "uniform", "mode": "fan_avg"}, "class_name": "VarianceScaling"}, "depth_multiplier": 1, "bias_initializer": {"config": {}, "class_name": "Zeros"}, "depthwise_constraint": null, "strides": [1, 1], "bias_constraint": null, "filters": 728}, "inbound_nodes": [[["block8_sepconv2_act", 0, 0, {}]]], "class_name": "SeparableConv2D"}, {"name": "block8_sepconv2_bn", "config": {"trainable": true, "scale": true, "axis": -1, "beta_regularizer": null, "epsilon": 0.001, "gamma_initializer": {"config": {}, "class_name": "Ones"}, "center": true, "momentum": 0.99, "beta_constraint": null, "name": "block8_sepconv2_bn", "moving_variance_initializer": {"config": {}, "class_name": "Ones"}, "gamma_regularizer": null, "gamma_constraint": null, "moving_mean_initializer": {"config": {}, "class_name": "Zeros"}, "beta_initializer": {"config": {}, "class_name": "Zeros"}}, "inbound_nodes": [[["block8_sepconv2", 0, 0, {}]]], "class_name": "BatchNormalization"}, {"name": "block8_sepconv3_act", "config": {"trainable": true, "name": "block8_sepconv3_act", "activation": "relu"}, "inbound_nodes": [[["block8_sepconv2_bn", 0, 0, {}]]], "class_name": "Activation"}, {"name": "block8_sepconv3", "config": {"name": "block8_sepconv3", "trainable": true, "data_format": "channels_last", "pointwise_regularizer": null, "depthwise_regularizer": null, "padding": "same", "use_bias": false, "kernel_size": [3, 3], "dilation_rate": [1, 1], "activation": "linear", "pointwise_constraint": null, "bias_regularizer": null, "depthwise_initializer": {"config": {"scale": 1.0, "seed": null, "distribution": "uniform", "mode": "fan_avg"}, "class_name": "VarianceScaling"}, "activity_regularizer": null, "pointwise_initializer": {"config": {"scale": 1.0, "seed": null, "distribution": "uniform", "mode": "fan_avg"}, "class_name": "VarianceScaling"}, "depth_multiplier": 1, "bias_initializer": {"config": {}, "class_name": "Zeros"}, "depthwise_constraint": null, "strides": [1, 1], "bias_constraint": null, "filters": 728}, "inbound_nodes": [[["block8_sepconv3_act", 0, 0, {}]]], "class_name": "SeparableConv2D"}, {"name": "block8_sepconv3_bn", "config": {"trainable": true, "scale": true, "axis": -1, "beta_regularizer": null, "epsilon": 0.001, "gamma_initializer": {"config": {}, "class_name": "Ones"}, "center": true, "momentum": 0.99, "beta_constraint": null, "name": "block8_sepconv3_bn", "moving_variance_initializer": {"config": {}, "class_name": "Ones"}, "gamma_regularizer": null, "gamma_constraint": null, "moving_mean_initializer": {"config": {}, "class_name": "Zeros"}, "beta_initializer": {"config": {}, "class_name": "Zeros"}}, "inbound_nodes": [[["block8_sepconv3", 0, 0, {}]]], "class_name": "BatchNormalization"}, {"name": "add_7", "config": {"trainable": true, "name": "add_7"}, "inbound_nodes": [[["block8_sepconv3_bn", 0, 0, {}], ["add_6", 0, 0, {}]]], "class_name": "Add"}, {"name": "block9_sepconv1_act", "config": {"trainable": true, "name": "block9_sepconv1_act", "activation": "relu"}, "inbound_nodes": [[["add_7", 0, 0, {}]]], "class_name": "Activation"}, {"name": "block9_sepconv1", "config": {"name": "block9_sepconv1", "trainable": true, "data_format": "channels_last", "pointwise_regularizer": null, "depthwise_regularizer": null, "padding": "same", "use_bias": false, "kernel_size": [3, 3], "dilation_rate": [1, 1], "activation": "linear", "pointwise_constraint": null, "bias_regularizer": null, "depthwise_initializer": {"config": {"scale": 1.0, "seed": null, "distribution": "uniform", "mode": "fan_avg"}, "class_name": "VarianceScaling"}, "activity_regularizer": null, "pointwise_initializer": {"config": {"scale": 1.0, "seed": null, "distribution": "uniform", "mode": "fan_avg"}, "class_name": "VarianceScaling"}, "depth_multiplier": 1, "bias_initializer": {"config": {}, "class_name": "Zeros"}, "depthwise_constraint": null, "strides": [1, 1], "bias_constraint": null, "filters": 728}, "inbound_nodes": [[["block9_sepconv1_act", 0, 0, {}]]], "class_name": "SeparableConv2D"}, {"name": "block9_sepconv1_bn", "config": {"trainable": true, "scale": true, "axis": -1, "beta_regularizer": null, "epsilon": 0.001, "gamma_initializer": {"config": {}, "class_name": "Ones"}, "center": true, "momentum": 0.99, "beta_constraint": null, "name": "block9_sepconv1_bn", "moving_variance_initializer": {"config": {}, "class_name": "Ones"}, "gamma_regularizer": null, "gamma_constraint": null, "moving_mean_initializer": {"config": {}, "class_name": "Zeros"}, "beta_initializer": {"config": {}, "class_name": "Zeros"}}, "inbound_nodes": [[["block9_sepconv1", 0, 0, {}]]], "class_name": "BatchNormalization"}, {"name": "block9_sepconv2_act", "config": {"trainable": true, "name": "block9_sepconv2_act", "activation": "relu"}, "inbound_nodes": [[["block9_sepconv1_bn", 0, 0, {}]]], "class_name": "Activation"}, {"name": "block9_sepconv2", "config": {"name": "block9_sepconv2", "trainable": true, "data_format": "channels_last", "pointwise_regularizer": null, "depthwise_regularizer": null, "padding": "same", "use_bias": false, "kernel_size": [3, 3], "dilation_rate": [1, 1], "activation": "linear", "pointwise_constraint": null, "bias_regularizer": null, "depthwise_initializer": {"config": {"scale": 1.0, "seed": null, "distribution": "uniform", "mode": "fan_avg"}, "class_name": "VarianceScaling"}, "activity_regularizer": null, "pointwise_initializer": {"config": {"scale": 1.0, "seed": null, "distribution": "uniform", "mode": "fan_avg"}, "class_name": "VarianceScaling"}, "depth_multiplier": 1, "bias_initializer": {"config": {}, "class_name": "Zeros"}, "depthwise_constraint": null, "strides": [1, 1], "bias_constraint": null, "filters": 728}, "inbound_nodes": [[["block9_sepconv2_act", 0, 0, {}]]], "class_name": "SeparableConv2D"}, {"name": "block9_sepconv2_bn", "config": {"trainable": true, "scale": true, "axis": -1, "beta_regularizer": null, "epsilon": 0.001, "gamma_initializer": {"config": {}, "class_name": "Ones"}, "center": true, "momentum": 0.99, "beta_constraint": null, "name": "block9_sepconv2_bn", "moving_variance_initializer": {"config": {}, "class_name": "Ones"}, "gamma_regularizer": null, "gamma_constraint": null, "moving_mean_initializer": {"config": {}, "class_name": "Zeros"}, "beta_initializer": {"config": {}, "class_name": "Zeros"}}, "inbound_nodes": [[["block9_sepconv2", 0, 0, {}]]], "class_name": "BatchNormalization"}, {"name": "block9_sepconv3_act", "config": {"trainable": true, "name": "block9_sepconv3_act", "activation": "relu"}, "inbound_nodes": [[["block9_sepconv2_bn", 0, 0, {}]]], "class_name": "Activation"}, {"name": "block9_sepconv3", "config": {"name": "block9_sepconv3", "trainable": true, "data_format": "channels_last", "pointwise_regularizer": null, "depthwise_regularizer": null, "padding": "same", "use_bias": false, "kernel_size": [3, 3], "dilation_rate": [1, 1], "activation": "linear", "pointwise_constraint": null, "bias_regularizer": null, "depthwise_initializer": {"config": {"scale": 1.0, "seed": null, "distribution": "uniform", "mode": "fan_avg"}, "class_name": "VarianceScaling"}, "activity_regularizer": null, "pointwise_initializer": {"config": {"scale": 1.0, "seed": null, "distribution": "uniform", "mode": "fan_avg"}, "class_name": "VarianceScaling"}, "depth_multiplier": 1, "bias_initializer": {"config": {}, "class_name": "Zeros"}, "depthwise_constraint": null, "strides": [1, 1], "bias_constraint": null, "filters": 728}, "inbound_nodes": [[["block9_sepconv3_act", 0, 0, {}]]], "class_name": "SeparableConv2D"}, {"name": "block9_sepconv3_bn", "config": {"trainable": true, "scale": true, "axis": -1, "beta_regularizer": null, "epsilon": 0.001, "gamma_initializer": {"config": {}, "class_name": "Ones"}, "center": true, "momentum": 0.99, "beta_constraint": null, "name": "block9_sepconv3_bn", "moving_variance_initializer": {"config": {}, "class_name": "Ones"}, "gamma_regularizer": null, "gamma_constraint": null, "moving_mean_initializer": {"config": {}, "class_name": "Zeros"}, "beta_initializer": {"config": {}, "class_name": "Zeros"}}, "inbound_nodes": [[["block9_sepconv3", 0, 0, {}]]], "class_name": "BatchNormalization"}, {"name": "add_8", "config": {"trainable": true, "name": "add_8"}, "inbound_nodes": [[["block9_sepconv3_bn", 0, 0, {}], ["add_7", 0, 0, {}]]], "class_name": "Add"}, {"name": "block10_sepconv1_act", "config": {"trainable": true, "name": "block10_sepconv1_act", "activation": "relu"}, "inbound_nodes": [[["add_8", 0, 0, {}]]], "class_name": "Activation"}, {"name": "block10_sepconv1", "config": {"name": "block10_sepconv1", "trainable": true, "data_format": "channels_last", "pointwise_regularizer": null, "depthwise_regularizer": null, "padding": "same", "use_bias": false, "kernel_size": [3, 3], "dilation_rate": [1, 1], "activation": "linear", "pointwise_constraint": null, "bias_regularizer": null, "depthwise_initializer": {"config": {"scale": 1.0, "seed": null, "distribution": "uniform", "mode": "fan_avg"}, "class_name": "VarianceScaling"}, "activity_regularizer": null, "pointwise_initializer": {"config": {"scale": 1.0, "seed": null, "distribution": "uniform", "mode": "fan_avg"}, "class_name": "VarianceScaling"}, "depth_multiplier": 1, "bias_initializer": {"config": {}, "class_name": "Zeros"}, "depthwise_constraint": null, "strides": [1, 1], "bias_constraint": null, "filters": 728}, "inbound_nodes": [[["block10_sepconv1_act", 0, 0, {}]]], "class_name": "SeparableConv2D"}, {"name": "block10_sepconv1_bn", "config": {"trainable": true, "scale": true, "axis": -1, "beta_regularizer": null, "epsilon": 0.001, "gamma_initializer": {"config": {}, "class_name": "Ones"}, "center": true, "momentum": 0.99, "beta_constraint": null, "name": "block10_sepconv1_bn", "moving_variance_initializer": {"config": {}, "class_name": "Ones"}, "gamma_regularizer": null, "gamma_constraint": null, "moving_mean_initializer": {"config": {}, "class_name": "Zeros"}, "beta_initializer": {"config": {}, "class_name": "Zeros"}}, "inbound_nodes": [[["block10_sepconv1", 0, 0, {}]]], "class_name": "BatchNormalization"}, {"name": "block10_sepconv2_act", "config": {"trainable": true, "name": "block10_sepconv2_act", "activation": "relu"}, "inbound_nodes": [[["block10_sepconv1_bn", 0, 0, {}]]], "class_name": "Activation"}, {"name": "block10_sepconv2", "config": {"name": "block10_sepconv2", "trainable": true, "data_format": "channels_last", "pointwise_regularizer": null, "depthwise_regularizer": null, "padding": "same", "use_bias": false, "kernel_size": [3, 3], "dilation_rate": [1, 1], "activation": "linear", "pointwise_constraint": null, "bias_regularizer": null, "depthwise_initializer": {"config": {"scale": 1.0, "seed": null, "distribution": "uniform", "mode": "fan_avg"}, "class_name": "VarianceScaling"}, "activity_regularizer": null, "pointwise_initializer": {"config": {"scale": 1.0, "seed": null, "distribution": "uniform", "mode": "fan_avg"}, "class_name": "VarianceScaling"}, "depth_multiplier": 1, "bias_initializer": {"config": {}, "class_name": "Zeros"}, "depthwise_constraint": null, "strides": [1, 1], "bias_constraint": null, "filters": 728}, "inbound_nodes": [[["block10_sepconv2_act", 0, 0, {}]]], "class_name": "SeparableConv2D"}, {"name": "block10_sepconv2_bn", "config": {"trainable": true, "scale": true, "axis": -1, "beta_regularizer": null, "epsilon": 0.001, "gamma_initializer": {"config": {}, "class_name": "Ones"}, "center": true, "momentum": 0.99, "beta_constraint": null, "name": "block10_sepconv2_bn", "moving_variance_initializer": {"config": {}, "class_name": "Ones"}, "gamma_regularizer": null, "gamma_constraint": null, "moving_mean_initializer": {"config": {}, "class_name": "Zeros"}, "beta_initializer": {"config": {}, "class_name": "Zeros"}}, "inbound_nodes": [[["block10_sepconv2", 0, 0, {}]]], "class_name": "BatchNormalization"}, {"name": "block10_sepconv3_act", "config": {"trainable": true, "name": "block10_sepconv3_act", "activation": "relu"}, "inbound_nodes": [[["block10_sepconv2_bn", 0, 0, {}]]], "class_name": "Activation"}, {"name": "block10_sepconv3", "config": {"name": "block10_sepconv3", "trainable": true, "data_format": "channels_last", "pointwise_regularizer": null, "depthwise_regularizer": null, "padding": "same", "use_bias": false, "kernel_size": [3, 3], "dilation_rate": [1, 1], "activation": "linear", "pointwise_constraint": null, "bias_regularizer": null, "depthwise_initializer": {"config": {"scale": 1.0, "seed": null, "distribution": "uniform", "mode": "fan_avg"}, "class_name": "VarianceScaling"}, "activity_regularizer": null, "pointwise_initializer": {"config": {"scale": 1.0, "seed": null, "distribution": "uniform", "mode": "fan_avg"}, "class_name": "VarianceScaling"}, "depth_multiplier": 1, "bias_initializer": {"config": {}, "class_name": "Zeros"}, "depthwise_constraint": null, "strides": [1, 1], "bias_constraint": null, "filters": 728}, "inbound_nodes": [[["block10_sepconv3_act", 0, 0, {}]]], "class_name": "SeparableConv2D"}, {"name": "block10_sepconv3_bn", "config": {"trainable": true, "scale": true, "axis": -1, "beta_regularizer": null, "epsilon": 0.001, "gamma_initializer": {"config": {}, "class_name": "Ones"}, "center": true, "momentum": 0.99, "beta_constraint": null, "name": "block10_sepconv3_bn", "moving_variance_initializer": {"config": {}, "class_name": "Ones"}, "gamma_regularizer": null, "gamma_constraint": null, "moving_mean_initializer": {"config": {}, "class_name": "Zeros"}, "beta_initializer": {"config": {}, "class_name": "Zeros"}}, "inbound_nodes": [[["block10_sepconv3", 0, 0, {}]]], "class_name": "BatchNormalization"}, {"name": "add_9", "config": {"trainable": true, "name": "add_9"}, "inbound_nodes": [[["block10_sepconv3_bn", 0, 0, {}], ["add_8", 0, 0, {}]]], "class_name": "Add"}, {"name": "block11_sepconv1_act", "config": {"trainable": true, "name": "block11_sepconv1_act", "activation": "relu"}, "inbound_nodes": [[["add_9", 0, 0, {}]]], "class_name": "Activation"}, {"name": "block11_sepconv1", "config": {"name": "block11_sepconv1", "trainable": true, "data_format": "channels_last", "pointwise_regularizer": null, "depthwise_regularizer": null, "padding": "same", "use_bias": false, "kernel_size": [3, 3], "dilation_rate": [1, 1], "activation": "linear", "pointwise_constraint": null, "bias_regularizer": null, "depthwise_initializer": {"config": {"scale": 1.0, "seed": null, "distribution": "uniform", "mode": "fan_avg"}, "class_name": "VarianceScaling"}, "activity_regularizer": null, "pointwise_initializer": {"config": {"scale": 1.0, "seed": null, "distribution": "uniform", "mode": "fan_avg"}, "class_name": "VarianceScaling"}, "depth_multiplier": 1, "bias_initializer": {"config": {}, "class_name": "Zeros"}, "depthwise_constraint": null, "strides": [1, 1], "bias_constraint": null, "filters": 728}, "inbound_nodes": [[["block11_sepconv1_act", 0, 0, {}]]], "class_name": "SeparableConv2D"}, {"name": "block11_sepconv1_bn", "config": {"trainable": true, "scale": true, "axis": -1, "beta_regularizer": null, "epsilon": 0.001, "gamma_initializer": {"config": {}, "class_name": "Ones"}, "center": true, "momentum": 0.99, "beta_constraint": null, "name": "block11_sepconv1_bn", "moving_variance_initializer": {"config": {}, "class_name": "Ones"}, "gamma_regularizer": null, "gamma_constraint": null, "moving_mean_initializer": {"config": {}, "class_name": "Zeros"}, "beta_initializer": {"config": {}, "class_name": "Zeros"}}, "inbound_nodes": [[["block11_sepconv1", 0, 0, {}]]], "class_name": "BatchNormalization"}, {"name": "block11_sepconv2_act", "config": {"trainable": true, "name": "block11_sepconv2_act", "activation": "relu"}, "inbound_nodes": [[["block11_sepconv1_bn", 0, 0, {}]]], "class_name": "Activation"}, {"name": "block11_sepconv2", "config": {"name": "block11_sepconv2", "trainable": true, "data_format": "channels_last", "pointwise_regularizer": null, "depthwise_regularizer": null, "padding": "same", "use_bias": false, "kernel_size": [3, 3], "dilation_rate": [1, 1], "activation": "linear", "pointwise_constraint": null, "bias_regularizer": null, "depthwise_initializer": {"config": {"scale": 1.0, "seed": null, "distribution": "uniform", "mode": "fan_avg"}, "class_name": "VarianceScaling"}, "activity_regularizer": null, "pointwise_initializer": {"config": {"scale": 1.0, "seed": null, "distribution": "uniform", "mode": "fan_avg"}, "class_name": "VarianceScaling"}, "depth_multiplier": 1, "bias_initializer": {"config": {}, "class_name": "Zeros"}, "depthwise_constraint": null, "strides": [1, 1], "bias_constraint": null, "filters": 728}, "inbound_nodes": [[["block11_sepconv2_act", 0, 0, {}]]], "class_name": "SeparableConv2D"}, {"name": "block11_sepconv2_bn", "config": {"trainable": true, "scale": true, "axis": -1, "beta_regularizer": null, "epsilon": 0.001, "gamma_initializer": {"config": {}, "class_name": "Ones"}, "center": true, "momentum": 0.99, "beta_constraint": null, "name": "block11_sepconv2_bn", "moving_variance_initializer": {"config": {}, "class_name": "Ones"}, "gamma_regularizer": null, "gamma_constraint": null, "moving_mean_initializer": {"config": {}, "class_name": "Zeros"}, "beta_initializer": {"config": {}, "class_name": "Zeros"}}, "inbound_nodes": [[["block11_sepconv2", 0, 0, {}]]], "class_name": "BatchNormalization"}, {"name": "block11_sepconv3_act", "config": {"trainable": true, "name": "block11_sepconv3_act", "activation": "relu"}, "inbound_nodes": [[["block11_sepconv2_bn", 0, 0, {}]]], "class_name": "Activation"}, {"name": "block11_sepconv3", "config": {"name": "block11_sepconv3", "trainable": true, "data_format": "channels_last", "pointwise_regularizer": null, "depthwise_regularizer": null, "padding": "same", "use_bias": false, "kernel_size": [3, 3], "dilation_rate": [1, 1], "activation": "linear", "pointwise_constraint": null, "bias_regularizer": null, "depthwise_initializer": {"config": {"scale": 1.0, "seed": null, "distribution": "uniform", "mode": "fan_avg"}, "class_name": "VarianceScaling"}, "activity_regularizer": null, "pointwise_initializer": {"config": {"scale": 1.0, "seed": null, "distribution": "uniform", "mode": "fan_avg"}, "class_name": "VarianceScaling"}, "depth_multiplier": 1, "bias_initializer": {"config": {}, "class_name": "Zeros"}, "depthwise_constraint": null, "strides": [1, 1], "bias_constraint": null, "filters": 728}, "inbound_nodes": [[["block11_sepconv3_act", 0, 0, {}]]], "class_name": "SeparableConv2D"}, {"name": "block11_sepconv3_bn", "config": {"trainable": true, "scale": true, "axis": -1, "beta_regularizer": null, "epsilon": 0.001, "gamma_initializer": {"config": {}, "class_name": "Ones"}, "center": true, "momentum": 0.99, "beta_constraint": null, "name": "block11_sepconv3_bn", "moving_variance_initializer": {"config": {}, "class_name": "Ones"}, "gamma_regularizer": null, "gamma_constraint": null, "moving_mean_initializer": {"config": {}, "class_name": "Zeros"}, "beta_initializer": {"config": {}, "class_name": "Zeros"}}, "inbound_nodes": [[["block11_sepconv3", 0, 0, {}]]], "class_name": "BatchNormalization"}, {"name": "add_10", "config": {"trainable": true, "name": "add_10"}, "inbound_nodes": [[["block11_sepconv3_bn", 0, 0, {}], ["add_9", 0, 0, {}]]], "class_name": "Add"}, {"name": "block12_sepconv1_act", "config": {"trainable": true, "name": "block12_sepconv1_act", "activation": "relu"}, "inbound_nodes": [[["add_10", 0, 0, {}]]], "class_name": "Activation"}, {"name": "block12_sepconv1", "config": {"name": "block12_sepconv1", "trainable": true, "data_format": "channels_last", "pointwise_regularizer": null, "depthwise_regularizer": null, "padding": "same", "use_bias": false, "kernel_size": [3, 3], "dilation_rate": [1, 1], "activation": "linear", "pointwise_constraint": null, "bias_regularizer": null, "depthwise_initializer": {"config": {"scale": 1.0, "seed": null, "distribution": "uniform", "mode": "fan_avg"}, "class_name": "VarianceScaling"}, "activity_regularizer": null, "pointwise_initializer": {"config": {"scale": 1.0, "seed": null, "distribution": "uniform", "mode": "fan_avg"}, "class_name": "VarianceScaling"}, "depth_multiplier": 1, "bias_initializer": {"config": {}, "class_name": "Zeros"}, "depthwise_constraint": null, "strides": [1, 1], "bias_constraint": null, "filters": 728}, "inbound_nodes": [[["block12_sepconv1_act", 0, 0, {}]]], "class_name": "SeparableConv2D"}, {"name": "block12_sepconv1_bn", "config": {"trainable": true, "scale": true, "axis": -1, "beta_regularizer": null, "epsilon": 0.001, "gamma_initializer": {"config": {}, "class_name": "Ones"}, "center": true, "momentum": 0.99, "beta_constraint": null, "name": "block12_sepconv1_bn", "moving_variance_initializer": {"config": {}, "class_name": "Ones"}, "gamma_regularizer": null, "gamma_constraint": null, "moving_mean_initializer": {"config": {}, "class_name": "Zeros"}, "beta_initializer": {"config": {}, "class_name": "Zeros"}}, "inbound_nodes": [[["block12_sepconv1", 0, 0, {}]]], "class_name": "BatchNormalization"}, {"name": "block12_sepconv2_act", "config": {"trainable": true, "name": "block12_sepconv2_act", "activation": "relu"}, "inbound_nodes": [[["block12_sepconv1_bn", 0, 0, {}]]], "class_name": "Activation"}, {"name": "block12_sepconv2", "config": {"name": "block12_sepconv2", "trainable": true, "data_format": "channels_last", "pointwise_regularizer": null, "depthwise_regularizer": null, "padding": "same", "use_bias": false, "kernel_size": [3, 3], "dilation_rate": [1, 1], "activation": "linear", "pointwise_constraint": null, "bias_regularizer": null, "depthwise_initializer": {"config": {"scale": 1.0, "seed": null, "distribution": "uniform", "mode": "fan_avg"}, "class_name": "VarianceScaling"}, "activity_regularizer": null, "pointwise_initializer": {"config": {"scale": 1.0, "seed": null, "distribution": "uniform", "mode": "fan_avg"}, "class_name": "VarianceScaling"}, "depth_multiplier": 1, "bias_initializer": {"config": {}, "class_name": "Zeros"}, "depthwise_constraint": null, "strides": [1, 1], "bias_constraint": null, "filters": 728}, "inbound_nodes": [[["block12_sepconv2_act", 0, 0, {}]]], "class_name": "SeparableConv2D"}, {"name": "block12_sepconv2_bn", "config": {"trainable": true, "scale": true, "axis": -1, "beta_regularizer": null, "epsilon": 0.001, "gamma_initializer": {"config": {}, "class_name": "Ones"}, "center": true, "momentum": 0.99, "beta_constraint": null, "name": "block12_sepconv2_bn", "moving_variance_initializer": {"config": {}, "class_name": "Ones"}, "gamma_regularizer": null, "gamma_constraint": null, "moving_mean_initializer": {"config": {}, "class_name": "Zeros"}, "beta_initializer": {"config": {}, "class_name": "Zeros"}}, "inbound_nodes": [[["block12_sepconv2", 0, 0, {}]]], "class_name": "BatchNormalization"}, {"name": "block12_sepconv3_act", "config": {"trainable": true, "name": "block12_sepconv3_act", "activation": "relu"}, "inbound_nodes": [[["block12_sepconv2_bn", 0, 0, {}]]], "class_name": "Activation"}, {"name": "block12_sepconv3", "config": {"name": "block12_sepconv3", "trainable": true, "data_format": "channels_last", "pointwise_regularizer": null, "depthwise_regularizer": null, "padding": "same", "use_bias": false, "kernel_size": [3, 3], "dilation_rate": [1, 1], "activation": "linear", "pointwise_constraint": null, "bias_regularizer": null, "depthwise_initializer": {"config": {"scale": 1.0, "seed": null, "distribution": "uniform", "mode": "fan_avg"}, "class_name": "VarianceScaling"}, "activity_regularizer": null, "pointwise_initializer": {"config": {"scale": 1.0, "seed": null, "distribution": "uniform", "mode": "fan_avg"}, "class_name": "VarianceScaling"}, "depth_multiplier": 1, "bias_initializer": {"config": {}, "class_name": "Zeros"}, "depthwise_constraint": null, "strides": [1, 1], "bias_constraint": null, "filters": 728}, "inbound_nodes": [[["block12_sepconv3_act", 0, 0, {}]]], "class_name": "SeparableConv2D"}, {"name": "block12_sepconv3_bn", "config": {"trainable": true, "scale": true, "axis": -1, "beta_regularizer": null, "epsilon": 0.001, "gamma_initializer": {"config": {}, "class_name": "Ones"}, "center": true, "momentum": 0.99, "beta_constraint": null, "name": "block12_sepconv3_bn", "moving_variance_initializer": {"config": {}, "class_name": "Ones"}, "gamma_regularizer": null, "gamma_constraint": null, "moving_mean_initializer": {"config": {}, "class_name": "Zeros"}, "beta_initializer": {"config": {}, "class_name": "Zeros"}}, "inbound_nodes": [[["block12_sepconv3", 0, 0, {}]]], "class_name": "BatchNormalization"}, {"name": "add_11", "config": {"trainable": true, "name": "add_11"}, "inbound_nodes": [[["block12_sepconv3_bn", 0, 0, {}], ["add_10", 0, 0, {}]]], "class_name": "Add"}, {"name": "block13_sepconv1_act", "config": {"trainable": true, "name": "block13_sepconv1_act", "activation": "relu"}, "inbound_nodes": [[["add_11", 0, 0, {}]]], "class_name": "Activation"}, {"name": "block13_sepconv1", "config": {"name": "block13_sepconv1", "trainable": true, "data_format": "channels_last", "pointwise_regularizer": null, "depthwise_regularizer": null, "padding": "same", "use_bias": false, "kernel_size": [3, 3], "dilation_rate": [1, 1], "activation": "linear", "pointwise_constraint": null, "bias_regularizer": null, "depthwise_initializer": {"config": {"scale": 1.0, "seed": null, "distribution": "uniform", "mode": "fan_avg"}, "class_name": "VarianceScaling"}, "activity_regularizer": null, "pointwise_initializer": {"config": {"scale": 1.0, "seed": null, "distribution": "uniform", "mode": "fan_avg"}, "class_name": "VarianceScaling"}, "depth_multiplier": 1, "bias_initializer": {"config": {}, "class_name": "Zeros"}, "depthwise_constraint": null, "strides": [1, 1], "bias_constraint": null, "filters": 728}, "inbound_nodes": [[["block13_sepconv1_act", 0, 0, {}]]], "class_name": "SeparableConv2D"}, {"name": "block13_sepconv1_bn", "config": {"trainable": true, "scale": true, "axis": -1, "beta_regularizer": null, "epsilon": 0.001, "gamma_initializer": {"config": {}, "class_name": "Ones"}, "center": true, "momentum": 0.99, "beta_constraint": null, "name": "block13_sepconv1_bn", "moving_variance_initializer": {"config": {}, "class_name": "Ones"}, "gamma_regularizer": null, "gamma_constraint": null, "moving_mean_initializer": {"config": {}, "class_name": "Zeros"}, "beta_initializer": {"config": {}, "class_name": "Zeros"}}, "inbound_nodes": [[["block13_sepconv1", 0, 0, {}]]], "class_name": "BatchNormalization"}, {"name": "block13_sepconv2_act", "config": {"trainable": true, "name": "block13_sepconv2_act", "activation": "relu"}, "inbound_nodes": [[["block13_sepconv1_bn", 0, 0, {}]]], "class_name": "Activation"}, {"name": "block13_sepconv2", "config": {"name": "block13_sepconv2", "trainable": true, "data_format": "channels_last", "pointwise_regularizer": null, "depthwise_regularizer": null, "padding": "same", "use_bias": false, "kernel_size": [3, 3], "dilation_rate": [1, 1], "activation": "linear", "pointwise_constraint": null, "bias_regularizer": null, "depthwise_initializer": {"config": {"scale": 1.0, "seed": null, "distribution": "uniform", "mode": "fan_avg"}, "class_name": "VarianceScaling"}, "activity_regularizer": null, "pointwise_initializer": {"config": {"scale": 1.0, "seed": null, "distribution": "uniform", "mode": "fan_avg"}, "class_name": "VarianceScaling"}, "depth_multiplier": 1, "bias_initializer": {"config": {}, "class_name": "Zeros"}, "depthwise_constraint": null, "strides": [1, 1], "bias_constraint": null, "filters": 1024}, "inbound_nodes": [[["block13_sepconv2_act", 0, 0, {}]]], "class_name": "SeparableConv2D"}, {"name": "block13_sepconv2_bn", "config": {"trainable": true, "scale": true, "axis": -1, "beta_regularizer": null, "epsilon": 0.001, "gamma_initializer": {"config": {}, "class_name": "Ones"}, "center": true, "momentum": 0.99, "beta_constraint": null, "name": "block13_sepconv2_bn", "moving_variance_initializer": {"config": {}, "class_name": "Ones"}, "gamma_regularizer": null, "gamma_constraint": null, "moving_mean_initializer": {"config": {}, "class_name": "Zeros"}, "beta_initializer": {"config": {}, "class_name": "Zeros"}}, "inbound_nodes": [[["block13_sepconv2", 0, 0, {}]]], "class_name": "BatchNormalization"}, {"name": "conv2d_4", "config": {"trainable": true, "data_format": "channels_last", "kernel_constraint": null, "kernel_regularizer": null, "use_bias": false, "kernel_size": [1, 1], "activation": "linear", "padding": "same", "name": "conv2d_4", "activity_regularizer": null, "kernel_initializer": {"config": {"scale": 1.0, "seed": null, "distribution": "uniform", "mode": "fan_avg"}, "class_name": "VarianceScaling"}, "bias_regularizer": null, "bias_initializer": {"config": {}, "class_name": "Zeros"}, "dilation_rate": [1, 1], "strides": [2, 2], "bias_constraint": null, "filters": 1024}, "inbound_nodes": [[["add_11", 0, 0, {}]]], "class_name": "Conv2D"}, {"name": "block13_pool", "config": {"pool_size": [3, 3], "trainable": true, "name": "block13_pool", "data_format": "channels_last", "padding": "same", "strides": [2, 2]}, "inbound_nodes": [[["block13_sepconv2_bn", 0, 0, {}]]], "class_name": "MaxPooling2D"}, {"name": "batch_normalization_4", "config": {"trainable": true, "scale": true, "axis": -1, "beta_regularizer": null, "epsilon": 0.001, "gamma_initializer": {"config": {}, "class_name": "Ones"}, "center": true, "momentum": 0.99, "beta_constraint": null, "name": "batch_normalization_4", "moving_variance_initializer": {"config": {}, "class_name": "Ones"}, "gamma_regularizer": null, "gamma_constraint": null, "moving_mean_initializer": {"config": {}, "class_name": "Zeros"}, "beta_initializer": {"config": {}, "class_name": "Zeros"}}, "inbound_nodes": [[["conv2d_4", 0, 0, {}]]], "class_name": "BatchNormalization"}, {"name": "add_12", "config": {"trainable": true, "name": "add_12"}, "inbound_nodes": [[["block13_pool", 0, 0, {}], ["batch_normalization_4", 0, 0, {}]]], "class_name": "Add"}, {"name": "block14_sepconv1", "config": {"name": "block14_sepconv1", "trainable": true, "data_format": "channels_last", "pointwise_regularizer": null, "depthwise_regularizer": null, "padding": "same", "use_bias": false, "kernel_size": [3, 3], "dilation_rate": [1, 1], "activation": "linear", "pointwise_constraint": null, "bias_regularizer": null, "depthwise_initializer": {"config": {"scale": 1.0, "seed": null, "distribution": "uniform", "mode": "fan_avg"}, "class_name": "VarianceScaling"}, "activity_regularizer": null, "pointwise_initializer": {"config": {"scale": 1.0, "seed": null, "distribution": "uniform", "mode": "fan_avg"}, "class_name": "VarianceScaling"}, "depth_multiplier": 1, "bias_initializer": {"config": {}, "class_name": "Zeros"}, "depthwise_constraint": null, "strides": [1, 1], "bias_constraint": null, "filters": 1536}, "inbound_nodes": [[["add_12", 0, 0, {}]]], "class_name": "SeparableConv2D"}, {"name": "block14_sepconv1_bn", "config": {"trainable": true, "scale": true, "axis": -1, "beta_regularizer": null, "epsilon": 0.001, "gamma_initializer": {"config": {}, "class_name": "Ones"}, "center": true, "momentum": 0.99, "beta_constraint": null, "name": "block14_sepconv1_bn", "moving_variance_initializer": {"config": {}, "class_name": "Ones"}, "gamma_regularizer": null, "gamma_constraint": null, "moving_mean_initializer": {"config": {}, "class_name": "Zeros"}, "beta_initializer": {"config": {}, "class_name": "Zeros"}}, "inbound_nodes": [[["block14_sepconv1", 0, 0, {}]]], "class_name": "BatchNormalization"}, {"name": "block14_sepconv1_act", "config": {"trainable": true, "name": "block14_sepconv1_act", "activation": "relu"}, "inbound_nodes": [[["block14_sepconv1_bn", 0, 0, {}]]], "class_name": "Activation"}, {"name": "block14_sepconv2", "config": {"name": "block14_sepconv2", "trainable": true, "data_format": "channels_last", "pointwise_regularizer": null, "depthwise_regularizer": null, "padding": "same", "use_bias": false, "kernel_size": [3, 3], "dilation_rate": [1, 1], "activation": "linear", "pointwise_constraint": null, "bias_regularizer": null, "depthwise_initializer": {"config": {"scale": 1.0, "seed": null, "distribution": "uniform", "mode": "fan_avg"}, "class_name": "VarianceScaling"}, "activity_regularizer": null, "pointwise_initializer": {"config": {"scale": 1.0, "seed": null, "distribution": "uniform", "mode": "fan_avg"}, "class_name": "VarianceScaling"}, "depth_multiplier": 1, "bias_initializer": {"config": {}, "class_name": "Zeros"}, "depthwise_constraint": null, "strides": [1, 1], "bias_constraint": null, "filters": 2048}, "inbound_nodes": [[["block14_sepconv1_act", 0, 0, {}]]], "class_name": "SeparableConv2D"}, {"name": "block14_sepconv2_bn", "config": {"trainable": true, "scale": true, "axis": -1, "beta_regularizer": null, "epsilon": 0.001, "gamma_initializer": {"config": {}, "class_name": "Ones"}, "center": true, "momentum": 0.99, "beta_constraint": null, "name": "block14_sepconv2_bn", "moving_variance_initializer": {"config": {}, "class_name": "Ones"}, "gamma_regularizer": null, "gamma_constraint": null, "moving_mean_initializer": {"config": {}, "class_name": "Zeros"}, "beta_initializer": {"config": {}, "class_name": "Zeros"}}, "inbound_nodes": [[["block14_sepconv2", 0, 0, {}]]], "class_name": "BatchNormalization"}, {"name": "block14_sepconv2_act", "config": {"trainable": true, "name": "block14_sepconv2_act", "activation": "relu"}, "inbound_nodes": [[["block14_sepconv2_bn", 0, 0, {}]]], "class_name": "Activation"}, {"name": "global_max_pooling2d_1", "config": {"trainable": true, "name": "global_max_pooling2d_1", "data_format": "channels_last"}, "inbound_nodes": [[["block14_sepconv2_act", 0, 0, {}]]], "class_name": "GlobalMaxPooling2D"}, {"name": "dropout_1", "config": {"trainable": true, "name": "dropout_1", "seed": null, "rate": 0.5, "noise_shape": null}, "inbound_nodes": [[["global_max_pooling2d_1", 0, 0, {}]]], "class_name": "Dropout"}, {"name": "dense_1", "config": {"trainable": true, "bias_initializer": {"config": {}, "class_name": "Zeros"}, "kernel_constraint": null, "kernel_regularizer": null, "use_bias": true, "activation": "relu", "name": "dense_1", "units": 1024, "activity_regularizer": null, "kernel_initializer": {"config": {"scale": 1.0, "seed": null, "distribution": "uniform", "mode": "fan_avg"}, "class_name": "VarianceScaling"}, "bias_regularizer": null, "bias_constraint": null}, "inbound_nodes": [[["dropout_1", 0, 0, {}]]], "class_name": "Dense"}, {"name": "dropout_2", "config": {"trainable": true, "name": "dropout_2", "seed": null, "rate": 0.5, "noise_shape": null}, "inbound_nodes": [[["dense_1", 0, 0, {}]]], "class_name": "Dropout"}, {"name": "dense_2", "config": {"trainable": true, "bias_initializer": {"config": {}, "class_name": "Zeros"}, "kernel_constraint": null, "kernel_regularizer": null, "use_bias": true, "activation": "relu", "name": "dense_2", "units": 1024, "activity_regularizer": null, "kernel_initializer": {"config": {"scale": 1.0, "seed": null, "distribution": "uniform", "mode": "fan_avg"}, "class_name": "VarianceScaling"}, "bias_regularizer": null, "bias_constraint": null}, "inbound_nodes": [[["dropout_2", 0, 0, {}]]], "class_name": "Dense"}, {"name": "dense_3", "config": {"trainable": true, "bias_initializer": {"config": {}, "class_name": "Zeros"}, "kernel_constraint": null, "kernel_regularizer": null, "use_bias": true, "activation": "softmax", "name": "dense_3", "units": 26, "activity_regularizer": null, "kernel_initializer": {"config": {"scale": 1.0, "seed": null, "distribution": "uniform", "mode": "fan_avg"}, "class_name": "VarianceScaling"}, "bias_regularizer": null, "bias_constraint": null}, "inbound_nodes": [[["dense_2", 0, 0, {}]]], "class_name": "Dense"}], "name": "model_1", "output_layers": [["dense_3", 0, 0]]}, "keras_version": "2.1.6", "class_name": "Model"}